基于神经网络的用户信誉登记评估/训练好的模型/star_level_model.pkl (torch, 543239 bytes, 10 tensors)

weight f4 [128, 14]
000000 2a 5f 26 3e d9 be 78 3e e3 74 15 3e e6 a9 11 bc
       0.1624724 0.24291553 0.1459537 -0.008890605
000010 f5 de 42 be c2 be 84 3e 3c 39 40 bd e7 49 dd bc
       -0.19030364 0.25926787 -0.046929583 -0.027012778
000020 d7 ca 89 3c fb a9 eb 3c aa 4b a0 bc 25 ec 0e 3e
       0.016820354 0.028767576 -0.01956733 0.1395727
000030 c7 7a 81 bd e9 a0 fa bd 37 3b 9d 3e cf d3 eb 3d
       -0.06322246 -0.122377224 0.3070924 0.11515009
000040 f3 77 d4 3d 99 77 c6 3d ce 6e 69 be ef 8c 97 be
       0.10374441 0.0969078 -0.22796175 -0.2959971
000050 9e 5a 15 3e a3 73 85 3e ff c8 0e 3e be c0 1e 3e
       0.14585349 0.26064786 0.13943861 0.15503213
000060 cf f4 46 3d d7 ac b1 bc 6b 22 7f be 7c 83 af 3b
       0.04857331 -0.021688862 -0.24915473 0.0053562503
000070 b8 13 bc 3c 78 14 e7 bd e2 eb 99 bd d4 a6 e9 3c
       0.022958621 -0.11283201 -0.07515694 0.028521933
000080 fe 9d 1e be f0 32 d8 bd b0 b1 b0 bc db 76 03 3e
       -0.15489957 -0.105565906 -0.021569103 0.12838309
000090 bf 19 22 be d6 ec 5e 3c 36 a3 07 be 0e d8 0a 3e
       -0.15830134 0.013606271 -0.13245854 0.13558981
0000a0 40 7a 7c 3d 43 c9 57 be 88 ae 3f be b7 8c 71 3e
       0.061640024 -0.21072869 -0.18718922 0.23588835
0000b0 91 8a 26 be 14 e2 a1 be b0 6f 60 be bf 6a 1d 3e
       -0.16263796 -0.31617796 -0.21917605 0.15372752
0000c0 25 96 85 3e 62 5b 65 be 80 e7 73 3e bb 73 87 be
       0.26091114 -0.22398141 0.23818779 -0.26455483
0000d0 4e 9a f5 bd 40 37 ef 3c 6c 89 48 3d 42 57 1f bd
       -0.11992322 0.02920115 0.04895918 -0.038901575
0000e0 4b f2 cc bd b2 6f 11 be f4 e7 de bc 1b 52 74 3d
       -0.10007151 -0.14202765 -0.027210213 0.059648614
0000f0 f3 a9 8a 3e 56 bb 5c be 24 9c 83 be 9c e4 8a bd
       0.27082786 -0.21555838 -0.25705063 -0.06781885
000100 71 a1 57 3d cf a3 f1 3d 22 1b 52 3e 5e 1f f2 3c
       0.052644197 0.11798822 0.20518163 0.029555973
000110 0e a3 08 be 99 83 92 3c 61 69 59 be 46 29 69 3e
       -0.1334345 0.017885016 -0.21231605 0.22769651
000120 e7 b6 db 3d 60 1c c3 bd f8 77 0a be 60 c2 61 be
       0.10728245 -0.095268965 -0.13522327 -0.22046804
000130 40 ad 57 be c2 d3 a4 be b2 e4 b2 be ed 0c 41 be
       -0.21062183 -0.32192808 -0.34940106 -0.18852587
000140 5c ac b8 be f2 ed 59 3d 2a 1b 16 be 11 c0 54 be
       -0.36069 0.053205438 -0.146588 -0.20776393
000150 e4 d6 70 bd a6 81 4e 3c 6e 39 fc ba bd de fc bb
       -0.058798686 0.012604153 -0.001924319 -0.007716982
000160 8c ee 8a 3c 2f 5e 98 3e f4 dd 3f 3e 54 2a 67 bc
       0.016959451 0.29759356 0.18737012 -0.014109213
000170 93 6e d0 bc 9a 25 4d 3e 64 15 48 3e f3 59 05 3e
       -0.02544335 0.20033875 0.1953941 0.13022594
000180 9c 63 10 be 86 0a 6e be ec f6 68 be c6 8d e3 3d
       -0.14100498 -0.23246202 -0.22750443 0.111110255
000190 27 9a 0f 3e 2d 39 8e 3d 21 2d db 3d 67 8e 80 be
       0.14023648 0.06944499 0.10701967 -0.25108644
0001a0 be 82 5c be 94 ed be be f1 5c 1d 3e 49 46 e9 bc
       -0.21534249 -0.37290633 0.15367486 -0.028475897
0001b0 b7 a4 8c bd ce 1b 08 3e 57 3c fc bd c7 63 20 be
       -0.06867354 0.13291857 -0.123161964 -0.15663062
0001c0 b4 00 09 bd 71 e9 4e be f4 bc 24 3d 26 a3 a5 bd
       -0.033447936 -0.20206238 0.040219262 -0.08087759
0001d0 6f ec c7 bd 9c 64 0b be a0 88 61 bc 8f 67 8e 3e
       -0.09761893 -0.13612598 -0.013765484 0.27813384
0001e0 06 26 80 be 8b 0a a7 3d 24 fa 43 be 95 d9 65 be
       -0.2502901 0.08156308 -0.1913839 -0.22446282
0001f0 e1 b5 e7 bd b8 22 25 3e 43 84 49 be bc 71 54 3e
       -0.113139875 0.16126525 -0.1967936 0.20746511
000200 52 84 ac bd 62 ac 63 be c2 cf 69 bd 5e 3a 83 bd
       -0.084236756 -0.22233728 -0.0570829 -0.06407617
000210 1c 38 7c be ac 22 da 3d 92 35 66 bd 47 57 b8 3d
       -0.24630779 0.106511444 -0.056203432 0.09001022
000220 03 32 37 3e 9b 18 4d be 2b 76 15 be c8 8b 0e 3e
       0.17890172 -0.20028917 -0.14595859 0.1392051
000230 fa 18 eb bd d3 48 62 be d4 f6 5b 3e 00 51 2a be
       -0.11479373 -0.22098093 0.21480876 -0.16632462
000240 1c b9 3c be a9 66 99 bd 26 c5 71 3e 84 0c 9a 3e
       -0.18429989 -0.07490284 0.23610362 0.30087674
000250 f5 11 c1 bd e9 df 29 bd 65 37 82 3e 3a 2c c2 bd
       -0.09427253 -0.041473303 0.25432888 -0.09481092
000260 2b 8c 3d 3d 99 de 45 3d 45 da 21 3c 15 76 61 3e
       0.046276253 0.04830799 0.0098787 0.22017701
000270 6d 99 ea bd 46 cd e6 3d 3a d6 34 bd 69 ef 30 be
       -0.11455045 0.112696216 -0.044149615 -0.17278828
000280 10 22 6d 3e 97 ac 97 3e 16 34 cb 3c 83 07 d2 bd
       0.23157525 0.29623863 0.02480511 -0.10255339
000290 6b 3f 9b be a1 92 86 be 0d 1d 3a be dd c4 da bd
       -0.30321822 -0.26283744 -0.18175144 -0.1068208
0002a0 d1 5c 1c be 18 4a c3 bd 24 01 38 3c fc 7f 74 bd
       -0.15269782 -0.09535617 0.011230741 -0.059692368
0002b0 f1 2a df bd 56 84 31 3e d8 19 d3 bd 88 a7 29 be
       -0.10896862 0.17335638 -0.10307664 -0.16567814
0002c0 df a5 21 3d 60 bb 78 bd 5a 1c 55 3d 0d e7 65 3e
       0.039464828 -0.06072557 0.05202899 0.2245142
0002d0 92 63 72 3d 73 c0 e4 3d 7f f5 34 3c 0b d9 91 bd
       0.05917699 0.11169519 0.011044859 -0.07121476
0002e0 16 61 a8 3d 81 b4 8d 3e 7a 79 f1 3b 08 a1 8e be
       0.08221643 0.27676776 0.0073692175 -0.27857232
0002f0 40 4d a1 3d 55 6b 78 3e 76 70 b0 3c 38 06 16 3e
       0.078760624 0.24259694 0.021538 0.1465081
000300 e6 dc 40 3e 0e cd 55 3e 21 56 02 bc f5 59 1e bb
       0.18834266 0.20879003 -0.007955105 -0.0024162505
000310 3a c0 30 3e 1d 24 f5 3d f6 d9 83 bc ea 7f 6a be
       0.17260829 0.11969779 -0.016095143 -0.22900358
000320 0a 11 fc bd b6 8a 7f be 07 6e 4f be 46 02 f0 3d
       -0.123079374 -0.24955258 -0.20256816 0.117191836
000330 36 1a 80 3b 50 5d 22 3d 22 cd 13 3d 19 99 6a be
       0.0039093746 0.03963977 0.0360843 -0.22909965
000340 1a e5 db 3c 9e 56 0b 3e 03 11 65 3e 29 53 42 be
       0.026842643 0.1360726 0.2236977 -0.18977036
000350 a7 10 22 bd 32 6b 64 be d8 1b 0d be a6 8e 7d bc
       -0.039566662 -0.22306517 -0.13780153 -0.015475905
000360 20 1e 3e 3e 8c 9b c3 bd ea 88 41 3d 67 09 95 be
       0.1856618 -0.095511526 0.047249712 -0.29108736
000370 44 d8 36 be 00 32 aa bd 94 61 82 3d ec 67 6e be
       -0.17855936 -0.08310318 0.06366268 -0.2328183
000380 26 22 52 3e e6 a0 5a 3e 8b 24 b8 be 68 11 92 be
       0.20520839 0.2135044 -0.3596538 -0.28528905
000390 3d 7d 41 be fe 28 46 bd a0 04 13 3d 35 e7 1d 3e
       -0.18895431 -0.048378937 0.035893083 0.1542023
0003a0 56 7a a5 be 40 4e 3e bd 60 d5 c4 bd 13 d6 1b bd
       -0.32319897 -0.046461344 -0.096110106 -0.038045954
0003b0 9e ec 93 3c 5c 39 37 3d af fa 85 be ef 46 bd bd
       0.018057164 0.044732437 -0.2616782 -0.09242045
0003c0 e9 ae 10 be 9a 66 db bc 45 0d a9 3d 80 e1 7f bd
       -0.14129223 -0.026782323 0.08254484 -0.062470913
0003d0 50 f7 15 bd 2e 8b 4b 3e 74 df 2e 3d cc e5 08 3e
       -0.03661281 0.19877312 0.04269357 0.1336891
0003e0 e5 a4 62 3e 53 6e 6b 3d 08 e6 2b 3e 18 10 06 be
       0.22133215 0.05747826 0.16786969 -0.13092077
0003f0 1a 41 dc 3b e3 63 f1 bc 27 d7 a6 3b d8 41 3f 3e
       0.006721628 -0.029466575 0.005091566 0.18677461

bias f4 [128]
000000 ff 9d aa be 44 e7 d6 3d 34 b7 3d be 05 f7 97 bd
       -0.33323666 0.10493329 -0.18526918 -0.07420162
000010 d9 0d c6 3d 48 81 0d be 8d 97 08 3e fa e8 44 be
       0.0967061 -0.13818848 0.13339062 -0.19229499
000020 09 02 57 be 61 ac 36 3e 5d 54 38 be 73 72 95 3d
       -0.2099687 0.17839195 -0.18000932 0.0729722
000030 de 03 0e 3e 33 58 c8 be 3a 7a 2e 3e 43 20 f8 bd
       0.13868663 -0.3912979 0.17038813 -0.121155284
000040 b0 81 5a 3d a4 1e 98 3d de bc 4a 3c 23 39 07 be
       0.053346336 0.07427719 0.012374131 -0.1320539
000050 3b e4 e7 3d 8d 68 1b 3e fc 70 af 3b 4b 41 14 3d
       0.113228284 0.15176602 0.005354045 0.03619508
000060 33 85 ac be fb 34 45 3d 31 2d 83 3c 7d 60 49 3e
       -0.33695373 0.04814623 0.01601276 0.19665714
000070 38 d1 79 3d 50 33 d0 3d c3 9a 0c 3e a4 d5 6e 3e
       0.060990542 0.10166037 0.13730912 0.23323685
000080 68 59 b1 3d db 93 15 bd 78 b5 0c bd 86 09 52 3d
       0.08659631 -0.03651796 -0.03435275 0.051278614
000090 6d c2 df be 55 92 af be 88 1e 4f 3d cd 87 0a bd
       -0.43703023 -0.3429133 0.050566226 -0.033820916
0000a0 0c 54 1a 3d 5f c9 47 be 1f e1 6b bd 9c d0 80 3d
       0.03767781 -0.1951041 -0.05758774 0.06289789
0000b0 96 fb 5a be c7 20 37 be 0c ec c9 bd a6 28 70 3e
       -0.21385035 -0.17883597 -0.098594755 0.23453006
0000c0 fd 08 b7 be e3 4f e5 3d 28 d5 94 bd a4 53 c3 3d
       -0.35749045 0.11196878 -0.07267219 0.095374376
0000d0 42 e8 4e 3d dd e6 dd be d1 c9 0c bf f0 bf 89 3c
       0.050514467 -0.43340197 -0.5499545 0.016815156
0000e0 38 22 c2 3d 50 6f 3b 3d 48 f3 1f 3e 18 ad 23 3e
       0.09479183 0.045760453 0.15620148 0.15983999
0000f0 8d 6d db bd cb f6 fc 3d 45 de dd 3d ff ac 5a 3c
       -0.107142545 0.123517595 0.1083341 0.01334691
000100 3d 3f d0 bc 3d 9d c3 3c 1d 9c cb be 4e f5 09 3c
       -0.02542078 0.023878688 -0.39767542 0.008420302
000110 f0 1a 42 3e 56 fa de 3d 74 dd 21 bc b7 f5 9b 3d
       0.18955588 0.108875915 -0.009879459 0.07615226
000120 5e f5 c5 3c d8 ab 9c bd de bc 16 3e d8 40 b7 bc
       0.024164852 -0.07649964 0.14720485 -0.022369787
000130 29 57 3a bd 90 21 4c 3d 69 d5 79 3e 34 fa 5e be
       -0.04549328 0.049836695 0.24397816 -0.21775132
000140 9e 41 41 bc 6d 9a c6 bd f1 46 e2 bc b8 45 6b be
       -0.0117954295 -0.09697423 -0.027621718 -0.22975814
000150 33 8e 1e 3e 67 a1 19 3d c8 4b 20 3d 66 36 32 3d
       0.15483932 0.03750744 0.03913477 0.04350891
000160 3b d2 07 3d f5 c2 fc bc 02 36 cd bc a8 58 50 3c
       0.033159476 -0.030854682 -0.025050167 0.01271645
000170 9f 5e 60 3e 9e f9 99 bd 19 c8 45 bd 9e e8 76 3d
       0.21911095 -0.07518314 -0.04828653 0.060280435
000180 eb 6f 2d be 7c 8f ea 3d 43 ea fe 3d 4b 5f 15 bd
       -0.16937225 0.11453149 0.124470256 -0.03646783
000190 18 11 b3 bd f8 50 e3 3d ff c3 06 3e 21 45 1a 3e
       -0.08743495 0.11099428 0.13160704 0.15065433
0001a0 a9 76 50 3d ff 42 ce 3d be 75 25 be bd 83 a5 be
       0.050894413 0.10071372 -0.16158196 -0.3232707
0001b0 66 f6 4a bd 01 c5 35 3e 5c 1c d7 ba c4 e6 1e 3b
       -0.04955139 0.17750932 -0.001641165 0.0024246434
0001c0 3d c8 79 bd b1 b8 0d be f4 b2 65 3d 20 3d 35 3d
       -0.060981978 -0.13839985 0.056078866 0.044247746
0001d0 b5 b0 09 3e c2 28 9f bd 82 2c 1d be 09 92 58 3e
       0.13446315 -0.07771446 -0.1534901 0.21149458
0001e0 05 41 12 be 05 63 c1 3d 93 9d 50 3e f4 c6 80 be
       -0.14282615 0.094427146 0.2037261 -0.2515179
0001f0 96 87 85 3c f0 9e 2c 3e 89 ff 8c bd f2 ad 3d 3e
       0.016300004 0.16857505 -0.06884677 0.18523386

weight f4 [256, 128]
000000 d5 64 f9 bd 7c 9c b6 bd 5a 40 f3 bb a0 6b cd bb
       -0.12177435 -0.08916566 -0.007423443 -0.0062689334
000010 6f 81 aa bd a7 c8 01 bc 2f 4f ed bd 96 8a ce bc
       -0.08325469 -0.007921374 -0.11587369 -0.025212567
000020 e2 55 35 bc 6f 4b fc bd 76 53 4f bc 3d 23 95 bd
       -0.011067839 -0.12319075 -0.012654176 -0.07282112
000030 a9 35 cf 3c 76 1f ec bd 40 10 82 bd c8 61 e5 bd
       0.025294142 -0.11529438 -0.06350756 -0.11200291
000040 8e 36 18 bd f8 43 fe 3c 8f 40 b9 bd 6f 69 23 be
       -0.037161402 0.03103827 -0.09045517 -0.15958188
000050 ea e2 9f bd ac db 3c bd d5 81 11 be b0 39 13 bd
       -0.07806952 -0.046107933 -0.14209683 -0.035943687
000060 3f ef f5 bd 0a 4a 2a 3c 25 e3 aa bc 7e df 66 bd
       -0.12008523 0.010393629 -0.020860264 -0.056365483
000070 0e 81 9a bd 66 20 c6 bb a9 78 db bc f9 ad 81 bd
       -0.075441465 -0.0060463427 -0.026790934 -0.06332011
000080 02 2f 75 3d 17 b3 eb bb 65 15 7c bd f6 36 1d be
       0.059859283 -0.00719298 -0.06154384 -0.15352997
000090 14 ef 5e bd 3b 5d 86 bc b7 cd 0a be 1c 85 62 bd
       -0.05442722 -0.016401878 -0.13555036 -0.055302724
0000a0 14 ab 16 bd 75 05 a0 bd f5 dd f0 bd db df 90 bd
       -0.036784247 -0.07813541 -0.11761085 -0.07073947
0000b0 7e 3a ee bd 1d 50 21 be 4f d0 47 bd b4 ba 29 bc
       -0.1163225 -0.15753217 -0.048782643 -0.010359455
0000c0 82 7d 97 bd 4b 08 98 bd 5f 35 e6 bd ec 7e e1 bd
       -0.073969856 -0.07423457 -0.112406485 -0.110105366
0000d0 08 5a f9 bc 6b 31 21 3c 3d 5a 12 be f8 73 b2 bc
       -0.030438438 0.009838442 -0.14292236 -0.021783814
0000e0 56 1d 0e be 8b 6c 62 3d a8 47 95 3c 14 96 e1 bd
       -0.13878378 0.055279296 0.018222645 -0.11014953
0000f0 57 7a 41 bd 9c 80 f9 bd 0c 5c 11 bd b7 7e a2 bd
       -0.047235813 -0.121827334 -0.035488173 -0.07934325
000100 9d d7 e7 bb cb 31 10 be 06 2c 1e be 2c 84 4a 3d
       -0.0070752637 -0.14081495 -0.15446481 0.049442455
000110 9c e4 e7 bc e4 e9 1f bc 91 6c ca bd 6c 4f 8d bd
       -0.028307252 -0.009760354 -0.09883989 -0.06899914
000120 b5 97 ea bd da 7d 5b bd 4b ff 5f bd 59 87 e0 3c
       -0.11454717 -0.05358682 -0.054686826 0.027408289
000130 66 30 1e bd 4c 90 2d bd 42 ef 13 be d8 92 df bd
       -0.038620375 -0.04237394 -0.14446738 -0.1091668
000140 df 4f db bc 3a 44 b8 bc 42 f7 ee bc 5d e3 0c be
       -0.026771484 -0.02249347 -0.029170636 -0.13758607
000150 28 3c f1 bc 85 41 84 bd cb 3a f8 bd e5 2a 19 be
       -0.02944763 -0.06457809 -0.12120589 -0.14957769
000160 70 2f 02 be 57 b6 01 be d4 30 a0 bd 81 91 54 bd
       -0.12713408 -0.12667213 -0.07821813 -0.051896576
000170 26 42 9a bd 33 31 a7 bd 16 82 bf bd f0 81 2d 3d
       -0.07532148 -0.08163681 -0.09350984 0.042360246
000180 36 2c 12 bc be f6 ba 3b 86 d6 c5 bd 86 29 aa bd
       -0.0089216735 0.0057056835 -0.09660058 -0.08308701
000190 af ab 11 be cb 44 c2 bd 8d db ec bd dc 11 8e bb
       -0.14225648 -0.094857775 -0.115653135 -0.004335625
0001a0 9d a1 04 be 4c 76 c7 bb f5 5f 0b bd de 94 29 be
       -0.12952276 -0.0060871 -0.03402706 -0.16560695
0001b0 8a 9b 18 bd 52 f1 d0 3c 31 ca 01 be 3b e1 da bd
       -0.03725771 0.025505695 -0.12674786 -0.106874906
0001c0 a3 48 17 3d ff 2a 1a be c7 7b 13 3c ef d7 19 be
       0.036934506 -0.15055464 0.009001679 -0.15023778
0001d0 90 ab 38 bd 18 bc 88 3c d9 e3 53 bd 08 ca 84 bd
       -0.04508549 0.016691253 -0.051730964 -0.06483847
0001e0 fb 0e d1 bd fd 9c ce bd 32 cc c6 bd 25 16 6e bd
       -0.102079354 -0.10088537 -0.09706916 -0.058126587
0001f0 4f 49 da bd 3c 4e 92 bd b6 4e 09 bc b8 e5 8a 3c
       -0.10658514 -0.07143828 -0.008380583 0.016955242
000200 3d f4 0a be f5 c6 30 be 8d 90 19 be 34 db 98 bd
       -0.13569732 -0.17263396 -0.14996548 -0.07463685
000210 2f 2d df 3d 8f 12 1e bd f6 6b b9 bc 59 3c c1 bd
       0.1089729 -0.038591918 -0.022634488 -0.094353385
000220 99 0f 79 3d 6f 5a 05 bc 0c 39 3c bd a2 21 6e be
       0.06080589 -0.008139237 -0.04595284 -0.23255017
000230 8c 71 0a 3d 5b 0b 41 be db f7 59 3d 9b 23 7b bc
       0.033799693 -0.18851988 0.05321489 -0.015328313
000240 41 e2 e1 bd 13 93 96 3d cb 21 fe bc d9 05 d0 bd
       -0.11029483 0.07352271 -0.031021973 -0.10157365
000250 23 0d eb bd 9f e7 04 bd 5a a7 97 bd 20 74 5f bd
       -0.11477115 -0.032447454 -0.07404967 -0.054554105
000260 80 af ea bb 28 1b ff bd 67 ae 3f be d3 be 59 3b
       -0.0071620345 -0.124563515 -0.18718873 0.0033225312
000270 31 03 60 3d 5b 79 ea 3c b8 93 c7 bc 4f f2 d4 ba
       0.054690544 0.02862232 -0.02436243 -0.001624653
000280 dc e5 00 3e 0a 6f ea bd cc f6 14 be d1 4a 23 be
       0.12587684 -0.1144696 -0.1454727 -0.15946509
000290 ba 30 e1 bb 61 74 30 be 95 ee b3 3b 5c 6c 00 be
       -0.0068722637 -0.17231895 0.0054910877 -0.12541336
0002a0 a4 26 6b bc 0e 09 96 bd 4d 89 1b 3c 6c 5f 0a bc
       -0.014352474 -0.07325946 0.009493184 -0.008445602
0002b0 cb 24 95 bd db 04 ac bd bd 95 0f bd 06 c5 e2 3d
       -0.07282408 -0.083993636 -0.03505491 0.110727355
0002c0 0e d9 e9 bd 57 9c ef 3d c3 d9 8a bd 37 26 9c 3c
       -0.11418353 0.11699741 -0.06779816 0.019061191
0002d0 aa 20 74 bd 6a d3 fe bb 3c 63 98 bd e3 64 0f be
       -0.059601463 -0.0077766674 -0.074408025 -0.14003329
0002e0 41 3d 5c be d9 87 9b 3c 66 78 5b bd 50 d4 68 bc
       -0.21507742 0.018985676 -0.053581618 -0.0142107755
0002f0 bc ea f2 bd 21 c5 71 bd b0 dc 15 be af e3 33 3d
       -0.11861178 -0.059025887 -0.14634967 0.043918308
000300 d3 ff 47 3e d6 b0 e4 3d c5 06 7a bd 7c 9f ce 3b
       0.19531183 0.11166541 -0.061041612 0.006305633
000310 9d 32 82 3d 1d 32 a7 bd e4 57 e7 3b e2 3d 9d bd
       0.0635731 -0.08163855 0.007060038 -0.07677819
000320 28 92 05 be 11 e0 35 bd 1c 6a 3e be ef ad 23 3e
       -0.13044035 -0.04440314 -0.18595165 0.15984319
000330 5c 81 c2 3c d2 af 16 3d f4 83 f8 bd 41 ca 1e be
       0.023743324 0.03678877 -0.12134543 -0.15506841
000340 cd f5 d7 3b c3 e0 af 3d 8f 9b 2b be 0f e0 07 be
       0.006590581 0.08587792 -0.1675856 -0.13269065
000350 03 dd ab bb fb 8f 1e 3c 70 06 f1 3d 4d da 9e bd
       -0.0052448525 0.009677882 0.11768806 -0.07756481
000360 89 e5 a5 bc 7e 0d 54 be 55 c9 d6 bd 2e 51 a3 bd
       -0.020251052 -0.20708272 -0.1048762 -0.07974468
000370 e6 b4 95 ba 37 ed 2f 3e 78 f6 a2 bd 31 79 64 3d
       -0.001142171 0.17180334 -0.079571664 0.05577964
000380 e3 c9 12 be 5d 1e 30 be 08 9e 07 bd a0 16 64 be
       -0.14334826 -0.17199083 -0.033109695 -0.22274256
000390 6b 01 3d be a2 b7 38 bd b3 27 bc 3d a8 b7 33 3d
       -0.18457572 -0.045097 0.091872595 0.04387632
0003a0 6f 10 1b be a1 39 4e 3d cb 02 c7 bd fa fb f6 bd
       -0.15142988 0.050347928 -0.097173296 -0.120597795
0003b0 fc 02 be 38 f4 a4 82 3d dc 73 83 3d ea ec 55 bd
       9.060462e-05 0.063791186 0.06418583 -0.052227892
0003c0 b4 54 35 3e 90 9a fe bd 4d 6d 84 3c ff 1a 63 be
       0.17708093 -0.12431824 0.0161654 -0.22178267
0003d0 3b fb 58 be 17 78 fc bc 44 b0 3c be a2 d6 ec 3d
       -0.21189587 -0.030818982 -0.18426615 0.115643755
0003e0 b4 7c a9 bd 7b 68 9b bc da 4f 82 bd 55 37 e1 bd
       -0.08275738 -0.018970719 -0.06362887 -0.10996882
0003f0 9d ab 60 be 1a 8c 06 3d 5b a0 8b 3d 17 2a a7 bd
       -0.21940465 0.032848455 0.06817695 -0.08162325

bias f4 [256]
000000 c7 66 f7 bc fd c2 28 bd 2d 27 43 3d 44 d5 b6 bd
       -0.030200375 -0.04120158 0.047644783 -0.08927396
000010 44 6c ef bc 44 10 21 bd 91 84 50 bd 33 d6 7f bd
       -0.02922643 -0.039322153 -0.050907675 -0.062460136
000020 69 53 a1 3b 5f 68 68 3d 38 e1 f3 bd 6e e3 a1 bd
       0.0049232733 0.05674016 -0.119081914 -0.07904707
000030 fd c3 11 3d 62 9c 86 3d 6e 90 1b bd 60 ea 16 bc
       0.0355873 0.065727964 -0.037979536 -0.009211153
000040 ea 44 90 3b 06 65 59 ba fd 09 88 bd 2b dd f1 3b
       0.0044027464 -0.0008292947 -0.0664253 0.0073811016
000050 ab 44 b7 bd 26 c8 0a bd 3a e2 db bd 08 a4 11 be
       -0.08948644 -0.033882283 -0.10736509 -0.14222729
000060 d6 39 53 3d 10 74 dc bd 8e 06 b5 bd 71 23 c5 3b
       0.05156883 -0.10764325 -0.08839141 0.006016188
000070 a8 07 89 3d 11 43 ec bd 5c b4 00 be d0 83 27 bd
       0.066909134 -0.115362294 -0.12568802 -0.04089719
000080 07 54 87 3c f7 5c c7 bd 0a 86 5d 3d 50 6c 12 3d
       0.01651956 -0.097345285 0.054082908 0.035747826
000090 f9 51 28 3d 2e 61 8a 3d 9f ee 12 be 8b 53 69 3c
       0.0410938 0.06756817 -0.14348839 0.01424111
0000a0 e8 b5 06 be a8 74 06 be 92 38 01 bc 24 1f d4 3c
       -0.13155329 -0.13130438 -0.007887023 0.025893755
0000b0 2e 18 06 be 73 7d a1 bb 73 ae 96 3c af 77 8b bd
       -0.13095161 -0.004928285 0.01839373 -0.06809937
0000c0 3f c9 26 bc 26 28 c8 bd c6 f1 20 bc 73 05 4d 3d
       -0.010179817 -0.09773283 -0.009823268 0.050054025
0000d0 43 c9 6d bb 76 12 6c bd 05 68 ec bc 33 98 04 3d
       -0.0036283291 -0.057634793 -0.028858194 0.03237171
0000e0 df 24 32 3d e4 81 c4 bd 8e 51 86 3b 18 15 dd 3a
       0.043492194 -0.09595087 0.0040990775 0.0016867248
0000f0 6f 7d 4b bc 95 f3 1a bd fe 0a 2a bc 19 71 0b bd
       -0.012420042 -0.037829954 -0.010378597 -0.034043405
000100 b6 4c 78 3d ad c7 54 bd 29 53 d6 bd 91 f6 27 bd
       0.060620032 -0.05194824 -0.1046508 -0.04100663
000110 a4 f0 13 bd d4 bd d6 bd 5e b3 7a bd 3e 08 8a 3d
       -0.036118165 -0.104854256 -0.061206214 0.06739853
000120 4d 53 a2 bd 81 c5 83 bc 91 51 2f bc b6 18 b2 bd
       -0.079260446 -0.016085388 -0.010700599 -0.086961195
000130 6f b3 98 3d d7 22 98 3d 0a 70 8b bd 5a 1c e3 3b
       0.07456099 0.0742852 -0.06808479 0.00693087
000140 2e 7a 0b bd 85 e7 64 bd dd e6 0b 3d 3b 50 d9 bc
       -0.034052067 -0.055884857 0.034155715 -0.026527515
000150 db 85 a2 3d 7d 22 24 3d ec 2d da bc d0 44 95 3c
       0.07935687 0.040071953 -0.026633225 0.018221289
000160 71 fa f2 bc 98 13 34 bc dc 00 17 be 82 c9 84 3c
       -0.029660435 -0.010991 -0.14746422 0.016209368
000170 b9 6c 69 bd 76 76 2c 3c 9b e3 d9 bc d9 a9 91 bd
       -0.05698845 0.01052629 -0.026597789 -0.07112474
000180 71 79 23 3c ff 9e b3 3b 1c 42 d9 3c fe 7a a3 bc
       0.009977684 0.0054816003 0.026520781 -0.019956108
000190 25 22 97 3d e9 fa da bc c6 0d c2 bb cc 5b 94 bd
       0.073795594 -0.026730971 -0.005922052 -0.07244071
0001a0 3c 34 b8 bd c2 75 f5 3d 50 33 da bd e9 8c a0 ba
       -0.08994338 0.11985351 -0.10654318 -0.0012249026
0001b0 2b 3f de bd c0 5c 10 ba 2d 8e 04 be f2 5d 2b bd
       -0.10851892 -0.0005506985 -0.12944861 -0.04183764
0001c0 65 c6 17 be d7 04 15 be 25 d8 f2 bd 84 dd b1 bb
       -0.14821775 -0.14552628 -0.118576325 -0.005428018
0001d0 a2 71 07 be b1 56 5a bd ac af 85 bc a9 a7 64 3d
       -0.13226941 -0.05330533 -0.016319118 0.055823956
0001e0 ae 9e 63 bb e0 3d d0 bc 5d fd 16 be f9 4b 93 3d
       -0.0034732032 -0.02542013 -0.14745088 0.07192225
0001f0 a3 e0 09 3c 00 7a 41 3b f7 e6 3d bd c6 06 91 3d
       0.008415374 0.002952218 -0.046362843 0.0708137
000200 48 e2 90 bd be 87 a3 bd 0f 3c 07 bc 6f 2b b9 3d
       -0.0707441 -0.07984875 -0.008254065 0.090414874
000210 a6 f9 10 be 94 4f a4 3d 8d 4c 8c bd d4 9f 63 3d
       -0.14157733 0.08022991 -0.068505384 0.055572346
000220 c4 ad 32 3d 15 5a e6 bd 68 a8 61 bd 62 9a cd 3d
       0.043622747 -0.112476505 -0.055092245 0.10039212
000230 96 87 eb 3d 9b 64 4c 3b c3 7b bf bb 4c 51 8e bb
       0.1150047 0.0031187895 -0.005843611 -0.0043431874
000240 1c b5 9c bd 7a a6 ea bd a8 1d 00 3d 5d 87 d6 3c
       -0.07651731 -0.11457534 0.031278282 0.026187593
000250 63 34 7a bb 01 b6 37 3d 2d af 29 3d 34 6f b0 bd
       -0.0038178198 0.044851307 0.041426826 -0.0861496
000260 e6 2c d2 bd 84 20 cf bc 63 41 69 bb f2 10 a6 3b
       -0.1026247 -0.02528406 -0.0035591952 0.005067938
000270 2c 5e 0e 3d a8 d9 1a bc a4 f5 b4 3c 81 23 ca bd
       0.034757778 -0.009451307 0.022089787 -0.09870053
000280 d0 86 ad bd 4f e7 6e bc 4b 41 83 3d da d4 7e bc
       -0.08472979 -0.014581515 0.06408938 -0.015553677
000290 57 36 9e 3d 3c c9 a8 bd ed f4 95 3c 5f 21 04 be
       0.07725208 -0.082415074 0.018305266 -0.12903355
0002a0 09 5a 13 3d 1b 4c 74 3d c6 21 84 bd d0 2d dd bc
       0.035974536 0.059642892 -0.06451754 -0.026999384
0002b0 60 9f 0f bd 80 c6 03 be 09 5d f2 bd 63 1e f6 bd
       -0.0350641 -0.1286869 -0.11834151 -0.120175146
0002c0 d3 17 03 3d 9f 09 2b bd 7b 6a a1 bd 19 73 0f be
       0.032005142 -0.041757222 -0.07881638 -0.1400875
0002d0 8e 50 13 3d 43 57 9c bd d4 db c3 bd d3 8d 93 bd
       0.035965495 -0.07633831 -0.09563413 -0.07204785
0002e0 b6 91 4e bc 89 45 94 bc a7 65 2f 3c 40 1a ee bd
       -0.012607982 -0.018099563 0.010705388 -0.116261005
0002f0 a3 d7 b1 bd 9f 4d 90 bd 32 b3 08 3c 60 9f e7 3d
       -0.086837076 -0.07046055 0.008343505 0.11309695
000300 19 e4 9e 3d aa 1c 85 3d 63 f1 bc bd a3 eb 9a 3c
       0.0775835 0.06499608 -0.09225728 0.018911188
000310 30 4e 79 bd bb 48 da bd 4d 47 6e 3d d6 f5 d5 3b
       -0.06086558 -0.106584035 0.058173466 0.00652955
000320 4c 96 d9 bd a5 65 10 3d e7 0f f4 bd a2 89 ad 3d
       -0.1062437 0.035253186 -0.11917096 0.08473517
000330 45 c0 7a 3c f6 84 79 bd 19 db f8 bb b1 07 25 bd
       0.01530463 -0.060917817 -0.007594478 -0.04029054
000340 e6 99 bd bc 3c 95 8a 3d 9b aa 1e bd a8 79 83 bd
       -0.023144674 0.067667454 -0.03873692 -0.064196885
000350 8a 2f 0a 3d b3 55 86 3d 81 c8 aa 3c 3e 4f 16 bc
       0.033736743 0.065593146 0.02084756 -0.009174166
000360 a3 51 c8 bd 21 bb 3f 3d d7 5b 08 be df 27 f5 bd
       -0.09781196 0.04680932 -0.13316284 -0.119704954
000370 66 e7 91 3d 22 f4 c0 bd bb 98 85 bd 75 06 c0 bd
       0.07124214 -0.09421565 -0.06523272 -0.093762316
000380 62 35 14 3b 73 e8 f2 bd 6a 07 c4 bd 59 44 15 be
       0.0022614826 -0.118607424 -0.095717266 -0.14576854
000390 a5 b1 0a 3c cd 81 3f 3c 29 f3 a7 bd ef 19 a9 bd
       0.008465205 0.011688662 -0.08200676 -0.082568996
0003a0 24 48 df 3c 10 4a 0b bd 5d 66 a1 3d c6 fb 02 be
       0.027256079 -0.03400618 0.07880852 -0.12791356
0003b0 60 a3 b9 3b 76 41 9b bc c2 03 ba ba f4 e0 67 bc
       0.005665228 -0.018952113 -0.0014191794 -0.014152754
0003c0 be 3a a6 bd 60 c9 a6 3c 35 26 a9 3c 32 a1 9b 3d
       -0.08116673 0.020359695 0.020648101 0.07599105
0003d0 b2 e7 10 3e b2 84 4f 3b 5b a4 1a be dc 70 6b bd
       0.14150885 0.0031664786 -0.15101759 -0.057480678
0003e0 31 83 9c bd 21 17 6c bd e3 11 8d 3d be 86 b5 3d
       -0.0764221 -0.057639245 0.06888177 0.08863591
0003f0 23 e4 4b 3d 16 2d 39 3d 19 65 13 3b 74 59 98 3d
       0.049778115 0.045209013 0.0022490679 0.07438937

weight f4 [256, 256]
000000 2f 09 84 bd 6c 5b ad bd f4 d5 c3 bd ac bb 77 bd
       -0.06447064 -0.08464703 -0.09562293 -0.060481712
000010 08 89 f1 bd 87 7d 8b bc b7 cf 94 bc 42 59 e0 bd
       -0.11793715 -0.01702763 -0.018165452 -0.109545246
000020 c7 d0 59 bd bb fd d7 bd 76 76 48 bd 37 aa 37 bd
       -0.05317762 -0.10546442 -0.0489411 -0.044840064
000030 cf 56 a5 bc d7 29 04 bd 47 1d e9 bd 7c 85 c4 bd
       -0.020182995 -0.032266464 -0.11382537 -0.095957726
000040 1c 59 f7 bd 88 58 aa bd 7a 76 b2 bd 0f 71 94 bc
       -0.12077543 -0.08317667 -0.08714004 -0.018120317
000050 be 06 9a bd 22 9a 1c bd 23 52 37 b9 1d 6c 5e bd
       -0.07520817 -0.03823293 -0.00017482838 -0.054302324
000060 18 88 6e bd c8 0f 05 bd ff 0a 59 bd f3 2a b8 bd
       -0.058235258 -0.032485753 -0.052989002 -0.08992567
000070 f6 26 c8 bd c4 7f 92 bd 9b c7 8f bb c3 cd 5f bd
       -0.09773056 -0.071532756 -0.0043878085 -0.05463959
000080 d7 cd a0 bb 71 56 e9 3c 58 35 a5 bd b4 24 57 bc
       -0.0049073505 0.028483601 -0.08066815 -0.013131309
000090 99 ff de bb 68 7e f8 bd 97 10 93 bb 18 d8 3e bd
       -0.006805372 -0.12133485 -0.0044880616 -0.0465928
0000a0 b3 22 c2 bd e4 72 a2 bd 37 f6 76 bc 9d 68 71 bc
       -0.094792746 -0.0793207 -0.015073351 -0.014734414
0000b0 ef 43 84 bd a5 3f 3c bd 2a be f6 b9 87 d2 44 bc
       -0.0645827 -0.045959134 -0.0004706246 -0.012013084
0000c0 b7 8f cb 3d 06 80 64 bd fc ae a7 bd 1e 51 f5 bd
       0.09939521 -0.055786155 -0.081876725 -0.119783625
0000d0 5b 67 90 bc 03 2e b5 bd c2 78 18 3d f5 51 3a bd
       -0.017627409 -0.08846667 0.03722454 -0.045488317
0000e0 49 9d 0c bc 0c 3a e8 bc 6d 7f a3 bd cb c0 59 bc
       -0.008582422 -0.028347991 -0.07983289 -0.013290594
0000f0 b2 fc a7 bb 9a bc 8c 3a 42 13 be bc b7 6a a7 bd
       -0.005126559 0.001073736 -0.023202542 -0.08174651
000100 e7 88 a7 bd 13 77 7e bd c5 fb 5a bd a2 cb a7 bd
       -0.08180409 -0.062125277 -0.053462762 -0.08193137
000110 0c 81 f5 bd 6e 02 78 3d 8e db 56 bd f2 36 93 bd
       -0.11987504 0.060549192 -0.052455477 -0.07188214
000120 16 56 37 bc 69 36 02 bd 8b a4 98 bd e9 2e 86 bb
       -0.011189958 -0.03179017 -0.07453259 -0.0040949476
000130 a0 d3 6b bd 4e f6 e5 bd f1 3a a1 3d 65 6e 61 bc
       -0.05757487 -0.112286195 0.0787257 -0.01375923
000140 20 07 74 ba d8 39 b6 bd 97 4a 90 bd 65 8a 2f bc
       -0.0009308923 -0.088977516 -0.07045477 -0.010714148
000150 f1 5b ad bc 40 c2 0c bd 05 02 fd bc ad 68 19 bd
       -0.021162005 -0.03436494 -0.030884752 -0.037453342
000160 52 16 a1 bc db 6a e9 bd dd ca 78 bd 26 b0 3c bd
       -0.019663963 -0.11397334 -0.06074034 -0.046066426
000170 f1 4c 8c bc a7 43 67 bd ad 85 83 bc 05 fe da bd
       -0.017126532 -0.056461003 -0.016054953 -0.10692982
000180 fb 77 a9 bd 56 13 d3 bd c7 76 a4 bd 5d 2c 85 bd
       -0.082748376 -0.103064224 -0.080304675 -0.06502602
000190 4e 1c 29 bd fb 06 88 bc 81 7a a5 bd 80 a6 bf bd
       -0.04128676 -0.016604891 -0.080800064 -0.09357929
0001a0 34 30 f2 bd 9d 7b 3a bd 47 39 c4 bc 97 54 c3 bd
       -0.118256 -0.045528043 -0.023953093 -0.095376186
0001b0 a0 6c b4 bd 90 24 cb ba 6a a4 60 3d 1b 5b 49 bd
       -0.08809781 -0.0015498567 0.054844297 -0.04915915
0001c0 53 ea d5 bd 2f 9c d7 bc 2b cf 47 bd 7d 92 0a bd
       -0.104450844 -0.026319591 -0.048781555 -0.03383111
0001d0 0d c1 11 bd 4e 55 27 bd fe 6a 40 bd ee 94 df bd
       -0.0355845 -0.040852837 -0.046977036 -0.10917078
0001e0 d0 13 10 3b 6d 93 9f bd 12 9a f3 bc c0 ef 8c bd
       0.0021984465 -0.07791791 -0.029736552 -0.06881666
0001f0 f4 dd da bd 25 e3 74 bc 5b 93 97 bc 9f 4c 50 bd
       -0.106868654 -0.014946734 -0.018502882 -0.05085432
000200 23 e7 85 bd 37 c2 c0 bd f1 71 cc bd ca d8 1e bd
       -0.065382265 -0.094120435 -0.0998267 -0.038780965
000210 f0 9f 42 bd 6b 11 66 bc 23 ec 95 bc a7 a9 01 bd
       -0.04751581 -0.014042239 -0.018301075 -0.031655934
000220 2b 88 84 bd aa 0a f3 bd fe 66 d5 bc 37 10 0a bd
       -0.064712845 -0.118672684 -0.026050087 -0.03370687
000230 62 dd 9a bd fc 1a 98 b8 46 48 ba bd b5 44 9c bd
       -0.07561757 -7.252951e-05 -0.09095816 -0.07630292
000240 07 e2 51 bb 75 2c 2a bd 46 b8 16 bd c9 2c cf bd
       -0.0032025592 -0.041546304 -0.03679683 -0.10115964
000250 16 0c 5c bc fc 9b 19 bb 80 39 03 3d e5 ff bd bd
       -0.013430616 -0.0023438921 0.03203726 -0.09277324
000260 13 8e 88 bd a9 ce 82 bd a0 28 f2 bc 53 02 3d bd
       -0.066677235 -0.063870735 -0.029560387 -0.046144795
000270 ad 0c 3d bd 8d 39 a8 bd d4 63 e2 bd 48 0b dc bd
       -0.046154667 -0.08214102 -0.11054197 -0.10744339
000280 ac 3e a5 bd 45 e6 6e bb 4d 5e 07 bd 1b 88 93 bc
       -0.08068594 -0.003645317 -0.033048917 -0.018009236
000290 aa 8f bf bd d7 db 8d bc 50 bb 98 bd 98 0b dd bc
       -0.093535736 -0.017316742 -0.07457602 -0.026983067
0002a0 9b 58 8c bd fe 5d 9d bd f5 5b ae bc 1d cb 6a bc
       -0.06852838 -0.07683943 -0.021284083 -0.014330653
0002b0 5e b1 cc b9 f0 da 92 bd 52 e0 e3 ba 1f e0 d9 3d
       -0.0003904206 -0.07170665 -0.0017385578 0.10638451
0002c0 5c ff 6e bd e5 ad 88 3a 65 15 3e bd 17 51 a4 bd
       -0.058349 0.0010427801 -0.046407122 -0.08023279
0002d0 b3 97 13 bd e1 bd f6 bc 2f 1a bb bb 90 f1 05 bd
       -0.036033344 -0.030119838 -0.0057099084 -0.032701075
0002e0 29 93 19 bd a4 cd 14 bc 34 bf c8 3d c1 01 95 bd
       -0.03749386 -0.009082232 0.09802094 -0.07275725
0002f0 ae 06 9d bd a3 8e 4a bd bb e3 75 bd 40 1d b6 bd
       -0.0766729 -0.049452435 -0.060031634 -0.08892298
000300 3f 8e d7 bd 6c d7 b6 bd af c6 c1 bd 7c 46 97 bd
       -0.10525178 -0.08927807 -0.09461724 -0.07386491
000310 80 98 ce 3a 05 61 43 bd e9 18 c0 bd 10 30 b8 bd
       0.0015762001 -0.047699947 -0.09379751 -0.08993542
000320 55 7c d0 bd 4d 18 de bd 34 b9 92 bd f5 8c 7c bc
       -0.101799645 -0.10844479 -0.07164231 -0.015414466
000330 03 7e 55 bd cd 36 e1 bd ae 2e 51 bc 66 97 ea bc
       -0.052122127 -0.109967805 -0.012767477 -0.028636646
000340 d9 26 c7 3d 96 6f d5 bd 49 23 f7 bd 67 f5 e1 bd
       0.097242065 -0.10421674 -0.12067277 -0.11033135
000350 c5 f1 c4 bd 33 3a e1 3d 79 18 10 bd b5 70 0f bd
       -0.096164264 0.10997429 -0.03517959 -0.035019595
000360 65 d4 52 bd 8a fe 29 bd a3 7a c6 bd fe 8e 01 bd
       -0.051472086 -0.041502513 -0.0969136 -0.03163051
000370 bc 28 06 bc dd ac bb bd f9 bf 80 3d 87 a1 0e bd
       -0.008188423 -0.091638304 0.06286616 -0.034822013
000380 00 40 94 bd 7d b7 e9 bd b5 b9 a1 bc 78 a4 23 bd
       -0.072387695 -0.11411951 -0.019741872 -0.03995177
000390 48 93 ab bc 48 47 26 bd 5b c9 cd bd 6e 34 e3 bd
       -0.020944253 -0.040595323 -0.10048171 -0.110939845
0003a0 a7 f7 cf bd 4b e9 dc bd 7b 3f ab bc 11 a7 a1 bd
       -0.10154658 -0.107866846 -0.020904293 -0.078931935
0003b0 58 25 fa bd 2d 4c 80 bd bb 9b c2 bd 50 87 b5 bd
       -0.12214154 -0.062645294 -0.095023595 -0.088636994
0003c0 89 c8 68 bc 6a d3 e4 bd 87 7e a5 bd 78 71 e8 bd
       -0.014207968 -0.111731365 -0.08080774 -0.113497674
0003d0 69 dc f9 bc 3b ed 16 bd 83 e4 85 bc 3d d6 82 bd
       -0.030500608 -0.036847334 -0.016344314 -0.06388519
0003e0 31 e2 47 bd b7 58 c7 bd b5 7c b8 3d 1b 86 a2 bd
       -0.048799697 -0.09733718 0.09008161 -0.07935735
0003f0 05 a8 b9 bd 15 9f c9 3c 90 3e d8 bb 4a 71 95 bd
       -0.0906525 0.024611989 -0.006599255 -0.07296999

bias f4 [256]
000000 ca e7 b6 bd 26 a5 b2 bc cb 07 22 3e 72 96 0c bd
       -0.08930929 -0.021807265 0.15823285 -0.034323163
000010 7b 55 c6 bd 98 41 97 bd dc ec f9 3d 3c af 7c bd
       -0.09684273 -0.07385558 0.122033805 -0.061690554
000020 2a 2a 04 3e 2b 5b f8 bd 6f 43 82 bd 2c 00 19 3d
       0.1290671 -0.12126764 -0.06360518 0.03735368
000030 02 41 8d 3d 44 5a a6 bb 26 82 88 bd c9 ae 63 bd
       0.06897165 -0.0050766785 -0.06665449 -0.05558661
000040 92 97 cd 3d 09 02 22 3e f8 2f a4 bb cb 5c e3 3c
       0.10038675 0.15821089 -0.005010601 0.027754208
000050 60 8c f0 3d c4 b4 82 bc 55 aa 0e bd 8b 05 15 bd
       0.117455244 -0.015955336 -0.03483041 -0.03638224
000060 88 69 4d bd 42 f9 c2 3c fd 85 d9 bd 1e 61 94 bd
       -0.05014947 0.023800496 -0.10621259 -0.07245086
000070 eb 35 6b bd 71 cd e7 3d cb a6 4f 3d 3c 30 80 bd
       -0.057424467 0.11318482 0.050696176 -0.062592
000080 a8 71 39 bd fc 38 a0 bd f6 17 fa bd 28 b8 00 3e
       -0.045274407 -0.07823369 -0.122116014 0.1257025
000090 31 c5 8d bc fc ad e8 bd 6c 49 df bd 93 46 6d be
       -0.017305942 -0.1136131 -0.10902676 -0.23171453
0000a0 4d 3a 02 3e fc 0a 64 3c 73 5c 07 3e b7 e5 a6 bd
       0.12717552 0.0139186345 0.1321886 -0.081492834
0000b0 07 2a c4 3c 28 5b e2 bd c6 7c 9e bc db 21 dd bd
       0.023945821 -0.11052543 -0.019346606 -0.10797473
0000c0 93 48 00 3d 22 e3 39 bd c5 a8 b2 bb 39 d0 2b bd
       0.031319212 -0.045382626 -0.005452248 -0.041946623
0000d0 88 32 b2 3d d0 b8 52 3d 40 f1 4f 3d 48 da d5 bc
       0.08701044 0.051445782 0.050767183 -0.026105061
0000e0 05 55 cb bd 00 50 51 3d 10 24 86 bd e8 6e bf 3d
       -0.099283256 0.051101685 -0.06549847 0.093473256
0000f0 1d 4d fa bb f4 10 ab bd 87 a3 73 3d d0 4e a4 bd
       -0.007638587 -0.08352843 0.059482124 -0.08022845
000100 a6 90 8f bd ea 27 6a 3e d3 93 f4 3d 32 e3 04 3e
       -0.070100114 0.22866789 0.11942258 0.12977293
000110 e0 13 9c bc 13 79 87 bd fa ca 2c bc 84 8e 75 3b
       -0.019052446 -0.0661489 -0.01054644 0.003746898
000120 68 fb af bd b5 a0 b1 bc ca 0d cb bc 99 75 8d bd
       -0.08592874 -0.021683076 -0.024786849 -0.069071956
000130 e6 99 0c bd 75 74 3d 3d 87 f2 08 3e 0c a4 f1 3d
       -0.034326456 0.04625364 0.13373767 0.117988676
000140 18 ec e4 bd 15 31 bb bc c7 c5 4f 3b d1 5a 87 bc
       -0.11177844 -0.022850553 0.0031703578 -0.016522797
000150 85 37 6d 3d 5d 95 1f bd d0 7c d5 3d ca 10 dc bc
       0.057914276 -0.038960803 0.10424197 -0.026863474
000160 6b 67 56 be 24 38 89 3d 13 69 7f bd 78 85 dc bd
       -0.20937888 0.06700161 -0.062356066 -0.10767645
000170 d6 6e b8 bd 86 fa dc bd 0a 6d 24 bd 20 bd ce 3c
       -0.09005515 -0.10789971 -0.04014305 0.025236666
000180 64 cb a3 3d 94 27 63 bd dd 06 1c 3e 6b 3d 59 3d
       0.07997778 -0.055457667 0.15236993 0.05303709
000190 fd 4f 2a bd 4a dd c0 3c d4 62 00 bc ca 07 46 bd
       -0.04158019 0.023543019 -0.007836062 -0.048347272
0001a0 e7 f4 57 3d 84 0b 7e be 30 3e 1a 3c ed 93 bf bd
       0.05272379 -0.2480908 0.009414241 -0.093543865
0001b0 e9 c7 c8 bd f3 ff 48 bd e4 2c d5 bd 00 64 8a 3d
       -0.09803755 -0.049072217 -0.10408953 0.06757355
0001c0 48 29 cc 3d b8 02 b7 bd d6 8f f3 bd c9 99 b8 bd
       0.09968811 -0.089360654 -0.11892669 -0.09013707
0001d0 f8 1c 1c bd b9 e0 75 bd 7e 16 94 3d 97 c6 80 bc
       -0.038113564 -0.060028765 0.072308525 -0.015719695
0001e0 6e dc a0 3c 94 d7 eb bd 3c be 31 3e 5d 46 aa bd
       0.019636359 -0.11515728 0.17357725 -0.08314202
0001f0 cb 1d 42 bc 16 b6 ad 3c cb 12 dc bd ff d8 2d 3e
       -0.0118479235 0.02120499 -0.10745772 0.16977309
000200 9a 5d 9d bc 29 0b f3 bc 0f cc f2 bb ab 2f b1 3d
       -0.019209672 -0.029668408 -0.0074095796 0.0865167
000210 9f 3e f0 bd 90 64 5c bd 6a d1 95 3d 24 5d f2 3d
       -0.11730694 -0.05380684 0.07315333 0.118341714
000220 3f e4 09 3d 4a c4 c7 3d e3 51 84 3d c8 44 6d bd
       0.033664938 0.09754236 0.06460931 -0.057926923
000230 8e 6c 91 3d 36 3d 8b bd ad ba af bd ff f1 51 3d
       0.07100783 -0.067987844 -0.085805275 0.051256176
000240 e4 c6 55 3e 6b dc 1f bd 1f 06 ca 3d c0 8b b7 bc
       0.20876652 -0.039028566 0.09864449 -0.022405505
000250 9c c5 16 be 3b 51 09 3e b5 a2 0a bd 73 90 85 3d
       -0.1472382 0.13409893 -0.033846576 0.06521692
000260 e3 d1 a0 be 45 80 00 3e 49 da 8c 3d e5 27 61 bd
       -0.3141013 0.12548931 0.06877572 -0.054969687
000270 d5 d6 79 3c 3f 54 85 bd a7 50 3f bc 8a 9b 2c bd
       0.015248974 -0.06510209 -0.011676944 -0.04214052
000280 ac 9e 81 bd 4b 23 d6 bd 17 3c 8e bd a3 5c d0 bd
       -0.063290924 -0.1045595 -0.06945055 -0.10173919
000290 e4 fe 8d 3d 50 f2 4b 3c 35 7c b0 bc 45 1c ee 3c
       0.06933382 0.0124479085 -0.021543602 0.029066214
0002a0 33 33 dc bb 52 e5 9b 3b 04 be ee 3c 50 d9 77 bc
       -0.0067199706 0.0047575617 0.02914334 -0.015127495
0002b0 a0 ff 02 be ea 7b 8f bd 79 b8 8e bd 91 c9 06 3e
       -0.12792826 -0.070060566 -0.06968779 0.13162829
0002c0 2a 1e f8 bd 68 04 05 be 97 2e 15 3e ca 5f 1e 3e
       -0.12115128 -0.12989962 0.14568554 0.15466228
0002d0 bb 58 f5 3d 97 c1 53 bd dd 10 26 3e 67 f2 ac bd
       0.119798146 -0.051698294 0.1621737 -0.08444672
0002e0 17 31 18 3d 3a c1 03 bc 19 7c 6a bd 23 56 c6 3d
       0.03715619 -0.008041674 -0.057247255 0.09684398
0002f0 11 51 c6 bd 62 75 09 bd c5 d7 ad bd 5e 6e b4 bd
       -0.09683431 -0.03355921 -0.084884204 -0.08810113
000300 1d c1 6a be e0 ba 88 3c dd 7e 92 3d 94 d8 d7 3d
       -0.2292523 0.016690671 0.071531035 0.10539356
000310 c7 96 28 3c ef d4 eb 3b ff c6 2a 3e 46 6c 26 bb
       0.010289854 0.0071970145 0.16677473 -0.0025394126
000320 24 c4 f8 bc 75 67 88 bc f7 55 ee 3d 72 8a c7 bd
       -0.030366965 -0.016650895 0.1163749 -0.09743203
000330 60 03 c3 3d d0 68 95 3d d7 2d 48 bc 6a b6 38 bd
       0.09522128 0.07295382 -0.01221796 -0.04509584
000340 e4 bf 01 bc 1a 70 e3 3d e9 47 dc 3c 16 f8 04 3e
       -0.007919285 0.11105366 0.026889758 0.12985262
000350 bf 62 04 be 43 54 c6 bc d8 4e 0f 3d 71 3e 91 bd
       -0.12928294 -0.024210101 0.0349873 -0.07091988
000360 01 24 1c bd 53 5a 8f 3d 7b 44 f1 bc a3 cc 42 bc
       -0.038120274 0.0699965 -0.0294516 -0.0118896095
000370 37 02 6f 3b ae 97 28 bd 76 86 d6 3d 9e fc a3 bd
       0.0036469826 -0.041160278 0.10474865 -0.08007167
000380 ff 25 31 bd a5 45 07 3e 8b af ec 3c 30 7f b6 bc
       -0.043249127 0.13210161 0.0288923 -0.022277445
000390 d6 87 5f bd 05 7d a4 bd ce b1 3a 3c 8a 22 bd bd
       -0.054572903 -0.08031658 0.011394931 -0.092351034
0003a0 53 42 0f bd 00 bb 3f bd 28 f9 c7 3d fd ab d3 bb
       -0.03497536 -0.046809196 0.0976432 -0.0064597116
0003b0 f0 41 af bd 76 2b 5e bd 5f 7a b8 bd a8 be 27 bd
       -0.085574985 -0.054240666 -0.090077154 -0.04095331
0003c0 43 18 77 bc 14 0b 02 bd e0 d7 fb bc c2 4f 4f bd
       -0.015081468 -0.031748846 -0.030742586 -0.050613172
0003d0 c3 e9 a2 bd 67 92 8a bc 3c d3 95 bd c8 2c af 3d
       -0.07954743 -0.016915513 -0.073156804 0.08553463
0003e0 b2 c9 f5 bd 4d 47 37 3e ab d0 96 bd 86 48 75 3d
       -0.12001361 0.17898293 -0.07364019 0.059883617
0003f0 0a 4a 4c 3c fb 6d 09 3c 16 0f f7 3d 72 cc 57 bc
       0.012468824 0.008388038 0.12063424 -0.013171302

weight f4 [128, 256]
000000 bd b2 e6 3d 40 21 c4 bd c9 71 11 3d 23 73 9d 3c
       0.1126456 -0.095766544 0.035508905 0.01921994
000010 dd 02 88 bc 27 b7 8f bc 63 c4 16 3c 46 1d 9b 3d
       -0.016602928 -0.017543389 0.009202096 0.07573943
000020 8e 24 3f 3d 09 aa 83 bd 7a 6c fb 3a ea 16 2f 3c
       0.04666572 -0.06428916 0.0019182109 0.0106866155
000030 d2 a7 e6 3d 36 23 57 3c 97 87 8f 3c 14 66 a3 3d
       0.11262478 0.013130954 0.017520709 0.07978454
000040 3b ac bc 3d b8 01 bb 3d 9c ef 30 3d 25 f3 0b bc
       0.09212538 0.09131187 0.04319726 -0.008541857
000050 50 78 21 3c d6 3f ee 3d 09 22 5f bd 7f d3 39 bd
       0.009855345 0.116332695 -0.054475818 -0.045367714
000060 0d 97 8f 3b 6b c3 a4 3d 30 0e e2 3a 9d 5f 74 b9
       0.0043820203 0.080450855 0.001724666 -0.00023305272
000070 1f 12 8f 3c 7a 1a a1 3c 51 e5 93 bd de f4 df 3c
       0.017464695 0.019665945 -0.07221473 0.027338441
000080 aa c2 80 3c 44 06 ae bd 47 7a 1e bd 94 08 90 bc
       0.015717823 -0.08497289 -0.03869083 -0.017582215
000090 dd b2 45 3d d9 ea ce 3d 4c 6d 46 bd ea a7 5f bc
       0.04826628 0.101033874 -0.048444077 -0.013650874
0000a0 68 a3 9a 3d 08 44 94 3c 22 6f 10 3d a0 4f a1 3d
       0.075506985 0.018098846 0.035262235 0.078765154
0000b0 b1 c1 15 3d fa ba 2d 3d 5b e2 ce 3d 01 36 4d bd
       0.03656167 0.042414643 0.10101768 -0.05010033
0000c0 3d 81 e0 3d 44 66 ea bd 50 61 34 3d 6a 2f 4b 3c
       0.1096215 -0.11445287 0.044038117 0.012401441
0000d0 c7 fa d5 3d 55 3c 2e 3c 8a 21 07 3d 11 52 c7 bc
       0.104482226 0.010634501 0.03299097 -0.024331124
0000e0 33 62 b1 bd e7 04 ad 3d 53 9c 30 3d 29 be 9a 3d
       -0.08661308 0.08448201 0.043117832 0.075558014
0000f0 5f f2 7d 3d 46 f9 a6 bc 83 cc 77 bc c0 9f 5f 3d
       0.06199872 -0.020382535 -0.015124443 0.05459571
000100 91 0d 0a 3d a6 48 c5 3c 59 eb a9 3d de af c0 3d
       0.033704344 0.024082493 0.08296842 0.09408544
000110 14 3e d4 bc 01 2d a2 3d 56 93 c7 bc c6 f3 b0 bd
       -0.025908507 0.0791874 -0.024362247 -0.08640246
000120 a6 d3 0e bd e5 d5 cb bd c2 d5 0e bd 14 8f a9 3d
       -0.034869812 -0.099529065 -0.034871824 0.08279243
000130 7a ff 02 3c 84 04 0d bc be 7a 64 3c 4c ee 8a 3d
       0.007995481 -0.008607034 0.01394528 0.06783733
000140 b9 6e 0d bd f9 0b 31 bb 32 aa 12 3d ac 04 88 3d
       -0.03452942 -0.0027015193 0.035806842 0.06641516
000150 03 3d c1 3d 95 03 05 3e fc cb 6a 3d 43 e9 ba 3a
       0.09435465 0.12989648 0.05732344 0.0014260191
000160 dd 54 0a be 34 55 97 bc 56 56 eb 3d 51 57 d5 bd
       -0.13508935 -0.018473245 0.11491077 -0.10417045
000170 ba 6e b8 3d cd a8 2a 3d e3 d2 73 bd 56 7a 98 3d
       0.090054944 0.041664887 -0.05952729 0.07445209
000180 0f b4 a9 3d 5e 19 a2 3c 0d e4 82 3d aa 1b 68 bc
       0.082862966 0.019787487 0.063911535 -0.014166752
000190 0e 01 7d 3c 9f 69 c5 3d 65 2d 0c 3b d6 0d ed 3d
       0.015442146 0.09639286 0.0021389362 0.115749046
0001a0 27 7a 90 3d 23 24 b8 bd e8 db 63 bd c3 35 74 bd
       0.07054549 -0.089912675 -0.05562964 -0.059621584
0001b0 37 60 1b bd 3b fc b7 3b 11 5b a8 bd a6 45 dc 3d
       -0.037933555 0.005614785 -0.082204945 0.10755472
0001c0 e1 0a 38 3c de 1f 85 3c 81 13 86 bd b6 2f f1 3d
       0.0112330625 0.016250547 -0.06546689 0.11776678
0001d0 a2 32 82 3c 85 9b c8 bb 26 6e aa bd cc 3a d9 3c
       0.015893284 -0.006122055 -0.083217904 0.026517294
0001e0 32 5c 2e 3d dd e1 b9 3c ce 54 27 3d ec c3 ce bd
       0.042568393 0.022690708 0.04085236 -0.10095963
0001f0 34 47 8d 3c 60 94 9c 3c 89 a2 ab bc 13 16 73 bc
       0.017245866 0.01911372 -0.020951526 -0.014836806
000200 4e 52 85 3d 69 8b 9e 3d fa 5b dd 3d 96 88 92 ba
       0.06509839 0.07741434 0.10808559 -0.0011179622
000210 d6 f7 79 3d 55 64 b5 3b a5 b8 96 3d 9c 2b 96 3d
       0.06102737 0.005535642 0.07359437 0.073325366
000220 51 88 b5 3d ba c2 8b bb 57 e8 a0 3b 52 6c ea bd
       0.08863891 -0.0042651566 0.0049105096 -0.11446442
000230 be b6 82 3d 3d 7e e8 3c f8 20 50 3d 67 78 af bc
       0.063825116 0.028380508 0.05081269 -0.021419717
000240 ad 2f a5 3d 45 f3 d9 3b 37 dc 89 3b fa 3b a9 3c
       0.08065734 0.0066513144 0.00420716 0.020658482
000250 2e 43 27 bd 30 14 45 3d 1d 5f cc 3c 53 6e e7 3d
       -0.040835552 0.048114955 0.024947697 0.113003395
000260 10 cc c5 bd ea 26 da bb a4 49 86 3d f6 6a 4d bc
       -0.096580625 -0.006657471 0.065570146 -0.0125377085
000270 bb f7 6b 3d 58 4b e4 3c 7f 64 64 bd c8 e7 1e 3c
       0.0576093 0.027867958 -0.055759903 0.009698816
000280 fa 94 83 bd c6 9a de bd 3a 28 ca 3d 40 34 05 bc
       -0.064248994 -0.108693644 0.09870954 -0.008130133
000290 ec 61 a6 3d 39 7e b4 3c ca 35 13 3e 80 4b bc 3d
       0.08124146 0.022032844 0.14375988 0.09194088
0002a0 f8 17 a0 3d d1 72 2f 3d 2c 1e ea bc 49 da e1 ba
       0.07817072 0.042834107 -0.02857884 -0.0017231192
0002b0 b9 c4 2e bd 6d 05 a4 3d c2 a7 3f 3d b5 cc 6b bc
       -0.042668078 0.080088474 0.046790846 -0.014392068
0002c0 46 05 a1 bd 85 58 d4 ba 78 00 80 3d fe 10 85 bb
       -0.07862334 -0.0016200697 0.062500894 -0.0040608635
0002d0 ae 56 44 3d 1f dc cc 3d 40 8f d9 3d ff cc 97 bc
       0.047934227 0.10002922 0.10623026 -0.018530367
0002e0 0a 4c f3 3d 9d 7a 43 3c 21 93 c9 3d 29 7a 11 bd
       0.11879738 0.011931089 0.09842516 -0.03551689
0002f0 fd 23 9f bc 20 24 6e bd 28 13 e9 bd 69 fa 8e bc
       -0.01942634 -0.05813992 -0.11380607 -0.01745339
000300 b4 49 e4 bd db 8d 5a bc 2a 10 aa 3d 6f ed b9 bc
       -0.1114687 -0.013339485 0.08303864 -0.022696225
000310 9c 82 3e 3d 15 eb af 3b 3b c7 9f bc 60 80 95 3d
       0.046511278 0.0053686 -0.01950418 0.07299876
000320 6a f5 35 3d e1 c2 70 3d 77 53 97 bc 73 78 ea bd
       0.0444235 0.0587796 -0.018472416 -0.11448755
000330 c4 98 6f 3d 50 aa de 3d 2c c7 94 3d ab ab 07 3c
       0.058495298 0.10872328 0.072645515 0.008280675
000340 0f e6 d0 3d 68 4c 05 3d 24 0b 74 3c a8 52 2f 3d
       0.1020013 0.03254357 0.014895234 0.042803437
000350 7f 5e a8 bd 35 62 a7 3d 3c e8 99 3d c3 2a 08 3d
       -0.08221149 0.081730284 0.07514998 0.033243906
000360 99 3d 18 bd de 7d c9 bc a1 8c 2a 3d 0e 79 29 3d
       -0.03716812 -0.024596151 0.04163802 0.041375212
000370 47 14 9f 3d 06 57 dc 3d 33 a2 30 3d 52 c5 07 bb
       0.077675395 0.10758786 0.043123435 -0.0020716977
000380 8c 54 41 bd 56 2f 83 bc 51 ae 4a 3d a0 e3 c1 3d
       -0.04719977 -0.016013782 0.049482647 0.09467244
000390 f1 f4 ad 3d 4d c8 38 bc f4 ca d6 3b d0 a4 f9 bc
       0.084939845 -0.011278224 0.0065549556 -0.030474097
0003a0 e5 f2 93 3d 63 1f de bc a1 ff c4 3d bd 9d d3 3d
       0.07224063 -0.027114576 0.0961907 0.103328206
0003b0 ba 12 cc bc e6 cf f5 3b 12 0b 2c 3d 21 c6 78 3d
       -0.024911273 0.00750159 0.042002745 0.060735825
0003c0 69 35 be 3d 3e 28 be 3d aa 72 c7 3d 4e dc a3 bd
       0.09287531 0.09285019 0.09738667 -0.08001004
0003d0 22 b3 08 3c 64 9b b5 3b d2 c2 82 bd 43 42 af 3d
       0.00834349 0.0055422056 -0.06384815 0.0855756
0003e0 a9 3c e4 bd e6 10 f1 bb 04 bf 34 3d 2f 0d ba 3d
       -0.111443825 -0.007356751 0.04412748 0.09084546
0003f0 1f c3 02 bd 5f 2a b4 3c 5c 30 a0 3d cf 74 97 3d
       -0.031924363 0.02199286 0.07821724 0.07395326

bias f4 [128]
000000 62 0d c4 3d e7 5c fd 3d b8 7c 1e 3d 05 91 ea bd
       0.09572865 0.12371235 0.03869316 -0.114534415
000010 00 54 d8 bd 87 25 23 3e 6d 1f e0 b9 0e 7b 17 3b
       -0.10562897 0.15932284 -0.00042748023 0.0023114118
000020 52 23 5a 3a ff 51 4b 3e 32 b4 d6 3d 1d d3 89 bd
       0.0008321303 0.19855498 0.10483588 -0.0672972
000030 68 a4 03 bc fb 7c 87 3a b0 79 65 3d e8 ef f1 bb
       -0.008034803 0.001033693 0.056024253 -0.0073833354
000040 3c 3b f1 3d b8 1f 0a 3e 64 e6 c8 bd 3e 9b 84 bd
       0.11778876 0.13488662 -0.098095685 -0.064749226
000050 89 d3 08 3d 81 fb b7 bd dd b3 8e bd 4d 9e 07 3e
       0.03340486 -0.089835174 -0.069679 0.1324398
000060 a8 ac 97 bd 71 27 2a 3d 48 72 1f 3e de e1 10 3e
       -0.074059784 0.04154152 0.15570939 0.14148661
000070 5a a3 8d 3d 77 b9 2e bd 68 eb 76 3d 92 ae 9a bd
       0.069159225 -0.04265734 0.060283095 -0.07552828
000080 34 4f 9f bc 4e f9 f5 bd 35 83 54 3c 0c 58 57 3e
       -0.019446947 -0.12010442 0.012970735 0.21029681
000090 1c 70 59 3d bb 9a 0b bd 95 13 14 3e 01 79 e9 3d
       0.05308543 -0.03408311 0.14460595 0.11400033
0000a0 43 3c 0f 3e db e9 a4 bd 89 3f 3e bd 41 3a c6 bc
       0.13987832 -0.08052417 -0.04644731 -0.0241977
0000b0 48 1c d7 bd 25 99 1f bc 6a 00 5e 3d 9a 3e 5b 3d
       -0.10503441 -0.009741102 0.054199614 0.0535265
0000c0 bc 33 66 bc 9e 76 39 3e b9 48 2d 3d a6 9b af bd
       -0.01405042 0.18111655 0.04230568 -0.085746095
0000d0 54 4c f0 bd b0 68 d9 3d b5 f3 9c 3c b7 b5 06 3e
       -0.117333084 0.10615671 0.019159177 0.13155256
0000e0 01 bc 8c bd 2b 27 76 3d 6a 3a 86 bc 42 af d3 bd
       -0.068717964 0.060095947 -0.016385276 -0.10336162
0000f0 ad 51 59 3e db 42 57 bd f4 10 c0 bc e6 46 47 bd
       0.21222563 -0.052553993 -0.023445584 -0.0486516
000100 7a 59 8d 3d 81 94 0c bd f3 00 77 3e 06 6b e7 3d
       0.06901832 -0.03432131 0.24121456 0.1129971
000110 6c a2 8f bd e4 98 38 3d 6f 52 d8 3d 82 33 9d bd
       -0.070134014 0.045067683 0.10562598 -0.0767584
000120 8a e0 00 bd bd 2a ab bb e4 6a 62 3d a2 43 30 bd
       -0.031464137 -0.0052236007 0.05527772 -0.04303325
000130 04 cd fd ba f1 e2 96 3c 7d f9 7b bb 71 9d 6e bd
       -0.0019363468 0.018418761 -0.0038448267 -0.058255617
000140 f8 f4 d1 bd 3a 07 44 bd 83 6e 8f 3d 55 a3 2e 3d
       -0.10251802 -0.047858454 0.070035 0.042636234
000150 2f 7e 07 be 6d b1 09 3e 6d 8a 26 3e 13 23 a1 bd
       -0.13231729 0.13446589 0.16263743 -0.07868018
000160 25 c0 82 bd 88 bd 86 3d 82 80 97 bd cb 8e 77 bd
       -0.06384305 0.06579119 -0.07397558 -0.060438912
000170 e2 52 b1 be 47 ef 3f 3d c1 3b b2 3d 98 6a 10 be
       -0.34633547 0.046859052 0.087028034 -0.14103162
000180 d5 70 94 bd 3a 3b cc bc d7 d2 f3 bd 10 dc cf bc
       -0.072480835 -0.024930585 -0.11905449 -0.025373489
000190 ab db 7c bc d6 ea 10 3c 35 08 06 3e 4f 56 be 3d
       -0.015433232 0.008845052 0.13089068 0.09293806
0001a0 6d 8e 76 3e db f7 23 3e 0c 7c 2e bd 7e ee b2 3c
       0.24077769 0.16012518 -0.04259877 0.021842238
0001b0 de bf 1e 3c 46 c9 cc bd 06 8d 9d 3d e0 3f 37 bd
       0.009689299 -0.09999327 0.07692914 -0.04473865
0001c0 50 68 98 3d ec 09 b4 bd 9f d4 07 3e 38 91 b7 bc
       0.07441771 -0.08790955 0.13264702 -0.022408113
0001d0 77 35 1b 3e 59 3c 32 3e 7e 6c e4 bd 92 13 7c bd
       0.15157114 0.17405833 -0.11153506 -0.0615421
0001e0 1b 48 c0 bb 34 e8 18 bd 67 8e d1 bc c7 f2 31 3d
       -0.0058679706 -0.03733082 -0.025580598 0.04344442
0001f0 e2 74 12 3d 64 cd ee bd 57 7c 57 bc 18 d4 c5 bd
       0.035756 -0.11660269 -0.0131522035 -0.09659594
